Chatbot Code Modules/data.pth (torch, 6359 bytes, 6 tensors)

l1.weight f4 [8, 78]
-0.19889878 -0.3547186 -0.17096466 0.15181811 0.35002345 0.49281326 0.8992931 0.07000774
-0.34457725 0.048229594 -0.17945546 0.10133016 -0.456242 0.2650933 0.9561087 -0.34390467
0.41455728 -0.2940383 -0.28112206 -0.31468657 0.35997626 0.95782465 0.5636024 1.1116009
0.38585687 -0.2028559 0.50638086 0.5891811 0.5644677 0.48305622 0.2078875 -0.25484812
-0.19262218 0.18965794 0.6570438 -0.21257028 0.31651512 -0.3406395 0.63436866 0.9994146
-0.2599097 -0.124860615 0.1983858 -0.15351179 0.5282947 -0.2186716 0.79273033 0.20426205
-0.21639827 0.5254728 -0.10845054 0.27325103 0.086534366 -0.20020996 0.49546248 0.71621794
-0.26793554 -0.21459377 -0.2018793 -0.35371116 -0.30877814 0.5819576 -0.40238014 -0.13140258
-0.7936068 -0.3714305 0.078019485 0.5331182 0.123699866 -0.27928975 -0.9768534 0.48913604
-0.20455116 0.5028941 0.24904877 0.21324871 0.09063331 0.14206724 -0.21701257 -0.34791195
-0.31695488 0.7115686 0.3486886 0.32594806 -0.33780566 -0.23899485 0.6932361 -0.27251065
-0.3449886 -0.35402727 0.6435235 -0.10674644 -0.52729744 0.33563462 -0.30601028 0.18286857
-0.34174925 0.25476748 0.8349378 -0.36707598 -0.13283364 0.34233862 0.5274951 -0.31698003
0.5183363 0.5604395 0.54582447 0.4630026 0.8003358 0.07391769 0.66491514 0.5343242
-0.32462683 -0.28647363 -0.46257085 -0.051879626 -0.195927 0.12316317 0.11228519 -0.060252253
0.7108362 -0.21777472 -0.049849734 0.17392951 0.9300259 -0.023112942 0.6225002 0.34445637
-0.5058482 -0.23607253 -0.23780017 0.777975 -0.25068045 -0.47714415 0.18081851 -0.29298618
-0.29355535 -0.086815655 0.01873115 -0.04325477 0.48536596 0.6866814 -0.7051254 -0.17334272
-0.11690597 0.068550624 -0.1349056 0.7373251 0.59055823 -0.13092089 0.28678325 0.0029676538
0.7233753 -0.088497885 0.18647386 0.7954687 -0.11765091 -0.3231743 -0.18986504 -0.39070535
0.4005752 0.19347247 -0.23187754 -0.20632702 -0.22659533 -0.37735417 -0.34662783 -0.39662233
0.9268783 0.444867 0.62878996 0.53951424 -0.22734365 0.48952457 -0.36652723 0.4345903
0.2720586 -0.23375808 -0.052664235 -0.3507571 0.6127782 -0.28488162 0.582876 0.49319863
0.55520064 0.46726662 0.58815306 0.2257208 -0.25857845 0.30864525 -0.31187978 -0.37855786
-0.37615675 -0.09328596 0.17299274 -0.4236274 0.6885326 0.0028315573 -0.3656035 -0.18573584
-0.058734443 0.32556587 -0.701728 -0.2890808 -0.4148718 -1.0164788 -0.44705904 -0.2683611
-0.32788837 -0.3593399 0.27013418 -0.25677755 0.56050414 -0.15470484 -0.33582368 -0.17828889
0.39848372 -0.014042901 0.9420656 -0.32102206 -0.56093866 -0.21044493 0.6959428 0.004287843
0.87787265 -0.4533075 0.7706454 0.006518268 0.5037167 -0.042308256 -0.2349276 -0.19941583
-0.17150539 -0.50264996 -0.32516944 0.6515094 -0.18415414 0.44678336 -0.41144407 -0.14182508
0.80593264 -0.14031942 0.3548312 -0.29391178 -0.19506127 -0.46450916 0.1292314 0.255791
0.2318981 0.58758205 -0.18218689 0.608564 -0.38359877 0.47734943 -0.8898452 0.82846105
00000000: 1fac 4bbe ad9d b5be 5c11 2fbe 3576 1b3e
00000010: 4636 b33e 0552 fc3e 1338 663f 3860 8f3d
00000020: 6e6c b0be 658c 453d 2cc3 37be 3086 cf3d
00000030: 8d98 e9be 4fba 873e 8ac3 743f 4614 b0be
00000040: da40 d43e 308c 96be 3bef 8fbe 991e a1be
00000050: cf4e b83e ff33 753f 3f48 103f f048 8e3f
00000060: 088f c53e 75b9 4fbe 2da2 013f 93d4 163f
00000070: f580 103f 2553 f73e 76e0 543e 747b 82be
00000080: c03e 45be b135 423e 0634 283f 06ac 59be
00000090: 450e a23e 4d68 aebe fc65 223f a3d9 7f3f
000000a0: e212 85be ecb6 ffbd a625 4b3e 3232 1dbe
000000b0: 523e 073f 73eb 5fbe 60f0 4a3f 122a 513e
000000c0: 8297 5dbe 6385 063f 511b debd 8fe7 8b3e
000000d0: ee38 b13d d703 4dbe 42ad fd3e 0f5a 373f
000000e0: d92e 89be 78be 5bbe 72b9 4ebe a119 b5be
000000f0: 2b18 9ebe 2cfb 143f c504 cebe 668e 06be
00000100: d129 4bbf 232c bebe aec8 9f3d 6f7a 083f
00000110: 5b56 fd3d 11ff 8ebe 1013 7abf 0a70 fa3e
00000120: dc75 51be abbd 003f a406 7f3e df5d 5a3e
00000130: f59d b93d 137a 113e 8b38 5ebe 8421 b2be
00000140: e947 a2be 5c29 363f 5087 b23e aae2 a63e
00000150: ddf4 acbe 11bb 74be ec77 313f 8486 8bbe
00000160: 59a2 b0be 1043 b5be f5bd 243f e19d dabd
00000170: f7fc 06bf 4dd8 ab3e 61ad 9cbe e641 3b3e
00000180: c2f9 aebe e270 823e 7cbe 553f 62f1 bbbe
00000190: 8b05 08be 0247 af3e eb09 073f 354b a2be
000001a0: b0b1 043f f778 0f3f 27bb 0b3f ad0e ed3e
000001b0: cfe2 4c3f 2862 973d e137 2a3f 79c9 083f
000001c0: 7d35 a6be acac 92be 16d6 ecbe bb7f 54bd
000001d0: 16a1 48be f93c fc3d c7f5 e53d 11cb 76bd
000001e0: 5cf9 353f 5600 5fbe 3c2f 4cbd 941a 323e
000001f0: 2d16 6e3f 5a57 bdbc 2c5c 1f3f 965c b03e
00000200: 457f 01bf ffbc 71be e381 73be 5f29 473f
00000210: 3059 80be 3d4c f4be 7d28 393e 4902 96be
00000220: e34c 96be 68cc b1bd 1272 993c ea2b 31bd
00000230: e381 f83e 5aca 2f3f 1983 34bf c180 31be
00000240: 666c efbd 4564 8c3d b224 0abe 56c1 3c3f
00000250: d32e 173f 2010 06be 41d5 923e f87c 423b
00000260: 202f 393f 613e b5bd 01f3 3e3e d6a3 4b3f
00000270: f6f2 f0bd 1a77 a5be fb6b 42be 880a c8be
00000280: 3118 cd3e a61d 463e 4e71 6dbe 6447 53be
00000290: 9b08 68be 9134 c1be 3479 b1be 1512 cbbe
000002a0: e547 6d3f 9cc5 e33e 61f8 203f 9b1d 0a3f
000002b0: c6cc 68be f7a2 fa3e 75a9 bbbe 9f82 de3e
000002c0: 444b 8b3e 475e 6fbe 74b6 57bd 6f96 b3be
000002d0: 08df 1c3f 01dc 91be 5d37 153f 8884 fc3e
000002e0: a121 0e3f 923d ef3e 3391 163f 5a23 673e
000002f0: 6564 84be c006 9e3e b5ae 9fbe 56d2 c1be
00000300: 9e97 c0be b60c bfbd 0225 313e b1e5 d8be
00000310: ac43 303f a691 393b 6230 bbbe 8931 3ebe
00000320: 8793 70bd 92b0 a63e 72a4 33bf 6602 94be
00000330: 146a d4be fa1b 82bf ece4 e4be a066 89be
00000340: fce0 a7be 66fb b7be 074f 8a3e 5978 83be
00000350: 337d 0f3f f26a 1ebe 15f1 abbe 5d91 36be
00000360: 0f06 cc3e 3214 66bc 362b 713f 015d a4be
00000370: ad99 0fbf e07e 57be 4f29 323f 0981 8c3b
00000380: 43bc 603f ec17 e8be 0449 453f 3297 d53b
00000390: 94f3 003f 6c4b 2dbd dc90 70be aa33 4cbe
000003a0: 1c9f 2fbe abad 00bf 9c7c a6be 52c9 263f
000003b0: e792 3cbe cac0 e43e cca8 d2be 983a 11be
000003c0: 9a51 4e3f e5af 0fbe 6fac b53e 9b7b 96be
000003d0: 24be 47be 25d4 edbe 3c55 043e 0af7 823e
000003e0: b276 6d3e c76b 163f 338f 3abe daca 1b3f
000003f0: 0f67 c4be 2567 f43e e5cc 63bf 0616 543f

l1.bias f4 [8]
0.9228162 0.72735965 0.7743148 0.67468065 0.81347823 0.9574978 0.74228907 0.66917413
00000000: af3d 6c3f 3e34 3a3f 7f39 463f dfb7 2c3f
00000010: 1c40 503f 931e 753f a806 3e3f ff4e 2b3f

l2.weight f4 [8, 8]
-0.0666047 0.25705567 -0.22282103 -0.033847928 -0.12715004 0.22933057 -0.104795694 -0.10888213
1.1522621 -0.20987913 1.4723855 -0.7090553 0.15827407 1.2436894 -0.14081044 -0.20342506
0.51409847 1.409208 1.5453062 1.6849946 0.5338088 1.3687909 -0.6601725 -0.21961409
-0.8386125 1.4344113 0.776666 0.02551683 1.4540629 -0.15116659 1.3405684 -0.35699323
-0.7036677 -0.78401023 -0.7842523 0.1911273 1.7333475 1.3308969 0.7814855 0.011544848
1.3783828 1.3083447 -0.41574663 0.25579172 0.6751066 -1.3588151 0.79696923 0.37332937
0.9894423 -0.873879 -0.8459108 1.1110663 -0.698909 0.18888186 0.5631919 1.6664176
0.6334875 0.40526006 -0.33298028 -1.2276438 0.14999893 0.22595583 1.2089324 0.7645942
00000000: 0c68 88bd cd9c 833e 322b 64be 20a4 0abd
00000010: 9f33 02be a2d5 6a3e 209f d6bd 98fd debd
00000020: 537d 933f 8eea 56be 2177 bc3f a684 35bf
00000030: 9912 223e 3731 9f3f 9d30 10be a94e 50be
00000040: f59b 033f ee60 b43f 98cc c53f e7ad d73f
00000050: b2a7 083f 8a34 af3f 1101 29bf 84e2 60be
00000060: 4faf 56bf ca9a b73f 95d3 463f ac08 d13c
00000070: bc1e ba3f 6acb 1abe bf97 ab3f d1c7 b6be
00000080: 9123 34bf e5b4 48bf c2c4 48bf e0b6 433e
00000090: 55de dd3f d45a aa3f 6f0f 483f 9a26 3d3c
000000a0: d96e b03f d777 a73f bedc d4be 22f7 823e
000000b0: c9d3 2c3f a7ed adbf 2d06 4c3f 0725 bf3e
000000c0: 174c 7d3f 89b6 5fbf 9c8d 58bf 6c37 8e3f
000000d0: b3eb 32bf 3f6a 413e 582d 103f 2c4d d53f
000000e0: 3d2c 223f 3f7e cf3e 647c aabe 6f23 9dbf
000000f0: 5299 193e f760 673e 4cbe 9a3f 72bc 433f

l2.bias f4 [8]
-0.33147538 0.7766982 0.40522915 0.4939327 0.4526467 0.32788056 0.6035665 0.35341436
00000000: 24b7 a9be b1d5 463f 327a cf3e bfe4 fc3e
00000010: 4fc1 e73e f6df a73e 5683 1a3f baf2 b43e

l3.weight f4 [13, 8]
-0.2506633 0.84866637 0.5524666 -1.2219213 -0.11031552 -0.62328124 -0.5742753 -0.90989894
0.14257458 -0.3705401 0.48366863 0.50288063 0.24370663 -0.46934983 -1.8029895 -1.552252
0.10132411 -0.16281922 0.025549697 -1.456711 0.32107767 -1.4556268 0.5483735 0.54135495
0.32850155 -0.04552226 0.34529302 -1.6987209 -1.4958175 0.25914294 0.81546825 -0.3495742
0.12879074 0.57654256 -0.08014353 0.4464774 -0.9564259 0.35224497 -1.5363076 0.6427444
0.1036323 0.28898168 -1.537979 -1.2458653 -1.377276 0.428142 0.76182085 0.599904
-0.21683769 -1.4910864 0.32457247 0.399962 0.4076539 0.59517497 -1.4755853 -0.88375
-0.1795599 -0.27335727 0.16684502 -0.6053353 0.3065571 0.13190837 -0.14384355 0.14807396
0.2111629 -0.23625427 -1.6657082 -0.0046166796 0.25386253 0.2817007 0.39102307 0.34135374
0.16342166 -1.4401693 0.0012018264 -0.022926796 -1.6062022 0.66796464 0.21307799 0.35698345
-0.34723237 -1.2635319 0.15307008 0.35731313 0.41306993 -0.11620087 0.271028 -2.037743
-0.27650923 0.3906616 0.6000119 0.63882476 -1.897365 -1.0224735 -1.9630057 -1.4177
0.1472654 -0.10205194 -0.538526 0.5273265 0.80113715 -1.1521989 -0.9298164 0.60265666
00000000: f156 80be 3342 593f 736e 0d3f eb67 9cbf
00000010: 1aed e1bd 5c8f 1fbf b503 13bf 23ef 68bf
00000020: 12ff 113e 6fb7 bdbe 6aa3 f73e c9bc 003f
00000030: 3b8e 793e 9f4e f0be 5cc8 e6bf 32b0 c6bf
00000040: 0483 cf3d 15ba 26be 994d d13c 8275 babf
00000050: 4b64 a43e fb51 babf 3562 0c3f 3d96 0a3f
00000060: 5b31 a83e 8d75 3abd 3fca b03e b06f d9bf
00000070: f376 bfbf 62ae 843e 87c2 503f 64fb b2be
00000080: b8e1 033e 4b98 133f 4b22 a4bd b098 e43e
00000090: 54d8 74bf 7459 b43e baa5 c4bf e68a 243f
000000a0: 2c3d d43d 68f5 933e 7fdc c4bf 8478 9fbf
000000b0: 944a b0bf 6e35 db3e b106 433f 4f93 193f
000000c0: b30a 5ebe ebdb bebf 5d2e a63e d2c7 cc3e
000000d0: 03b8 d03e 635d 183f fbdf bcbf 713d 62bf
000000e0: 8dde 37be 7cf5 8bbe 6cd9 2a3e 41f7 1abf
000000f0: 0df5 9c3e fd12 073e b94b 13be b3a0 173e
00000100: 163b 583e a4ec 71be ed35 d5bf 8447 97bb
00000110: 45fa 813e 133b 903e 2d34 c83e ebc5 ae3e
00000120: 0258 273e 7857 b8bf 9a86 9d3a fad0 bbbc
00000130: 0998 cdbf bbff 2a3f 1e31 5a3e 89c6 b63e
00000140: 71c8 b1be 6abb a1bf 67be 1c3e bff1 b63e
00000150: e77d d33e b9fa edbd 2fc4 8a3e 626a 02c0
00000160: 9e92 8dbe cc04 c83e 619a 193f 058a 233f
00000170: dbdc f2bf 69e0 82bf c543 fbbf 3277 b5bf
00000180: becc 163e 9c00 d1bd d7dc 09bf dffe 063f
00000190: 5317 4d3f 417b 93bf 7308 6ebf b547 1a3f

l3.bias f4 [13]
0.42396832 -0.68707347 -0.110639356 0.3449787 -0.05936265 0.24284565 0.4738645 -0.68875647
-0.2813222 -0.35852623 0.10485193 0.35620072 0.22397985
00000000: 6012 d93e 0ce4 2fbf e396 e2bd 0ca1 b03e
00000010: 4026 73bd 88ac 783e 5e9e f23e 5852 30bf
00000020: 7709 90be c090 b7be 9cbc d63d f15f b63e
00000030: f95a 653e
